onnx_models/my_image_classifier.onnx (onnx, 249749 bytes, 7 tensors)

conv1.weight f4 [6, 1, 5, 5]
000000 88 53 36 3e c7 16 83 bd aa fa f6 bd 5a 73 38 3e
       0.17805302 -0.06400829 -0.12059529 0.18012753
000010 6d 45 61 bd c3 3d 1d be eb ab 02 3e 45 ff 2f be
       -0.05499785 -0.15355591 0.12760894 -0.17187221
000020 77 18 18 be c5 9b 36 3e 6b 3c 36 3e 6d ba f5 bd
       -0.14853083 0.17832859 0.17796485 -0.119984485
000030 bb 08 31 3e 9a 84 2c 3e 93 f5 60 3d f7 60 d3 bd
       0.17288487 0.16847458 0.054921698 -0.10321229
000040 78 cb 43 3e 40 81 b0 3c 4d 68 0c bc 87 78 0f 3d
       0.19120586 0.021546006 -0.008569789 0.035027053
000050 c3 d3 37 3e c0 70 5e bd 1a a5 27 bc 18 35 49 3e
       0.17951874 -0.054306746 -0.010232234 0.1964916
000060 60 b5 00 3d fa 75 82 3d 3a 20 e1 3d 88 b0 23 3e
       0.031422973 0.063701585 0.10992475 0.1598531
000070 3d ec 98 3d 1a 7c 39 bd 40 c8 f0 bc 33 f4 08 bc
       0.07466934 -0.045284368 -0.029392362 -0.008359003
000080 9a 78 cb 3c d5 00 16 3e ad a3 7d 3d 73 96 da bd
       0.02483778 0.14648755 0.06192367 -0.10673227
000090 40 4c 26 bd 0a b8 2c be 9a 3a a5 bb 03 b9 f4 3d
       -0.04060006 -0.1686708 -0.0050423862 0.11949351
0000a0 83 45 93 3d 9a 91 9c 3d 80 cc 98 3d e7 9a 43 3d
       0.07190993 0.07644959 0.0746088 0.04775515
0000b0 8d 61 7c 3d 8d 60 bb bd aa a5 be 3d f0 23 44 be
       0.06161647 -0.09149275 0.09308942 -0.19154334
0000c0 f7 8a 06 be 5a bc f2 bd bd 39 21 be cd a9 17 bc
       -0.13138948 -0.118523315 -0.15744682 -0.009256792
0000d0 27 38 3a be ca eb 43 3e 9a c1 9a ba 9a 02 1b bd
       -0.18185483 0.19132915 -0.0011806965 -0.037844278
0000e0 d3 c1 68 3d 4d f0 cc bd 48 7e 34 be 43 b4 3e be
       0.05682547 -0.10006771 -0.17626297 -0.18623452
0000f0 5a fd a1 3d d0 0f fe bd 8d ae d4 bc 27 e7 89 3d
       0.07909651 -0.1240536 -0.025962139 0.06733542
000100 4d 36 8e bc 40 33 91 bd e7 b3 de bc 63 22 9d bd
       -0.017359877 -0.07089853 -0.027185393 -0.07672574
000110 c8 73 4c 3e a3 ef 40 3e 9a fa ef 3c 80 aa 41 3e
       0.19966042 0.18841414 0.0292943 0.18912697
000120 bf 83 0b be 80 03 19 be c0 d6 6e 3d 9d 3b 43 3e
       -0.13624476 -0.14942741 0.05831027 0.1906571
000130 70 3d 00 3e 33 ab d8 3c 48 b2 24 be 7d d3 1d be
       0.12523437 0.026448822 -0.16083634 -0.15412708
000140 cd 84 a3 bd e7 cd f4 3d b3 68 96 bd 28 92 3d 3e
       -0.07984314 0.11953335 -0.073441885 0.18512785
000150 37 6f fa 3d c7 fa 29 be d3 75 5a bd c7 d5 d1 3d
       0.12228244 -0.1659957 -0.053335022 0.10245853
000160 28 fe 42 be 3d 19 0d 3e 6d 6b ca bd b2 0a 25 be
       -0.19042265 0.13779159 -0.09883771 -0.16117361
000170 60 b5 2d be 0d 16 d0 bc a3 0d 34 3e 55 d3 14 be
       -0.1696372 -0.02540114 0.17583327 -0.14533742
000180 7d f1 3a be e0 28 28 3d 9a a8 38 bc eb d3 12 be
       -0.18256183 0.041054606 -0.0112706665 -0.14338653
000190 8d 8f c2 bc 67 28 ee bd 6d 93 a6 3d 6d 4e 4f 3d
       -0.023750091 -0.116288 0.08133588 0.050611902
0001a0 dd 52 41 be 8a ad 25 3e 4d 68 b2 3c 8a bf c9 bd
       -0.18879266 0.16179481 0.02177825 -0.09850986
0001b0 9d 9a a3 bd f7 55 a7 bd 5d 40 10 3e 67 34 a3 3d
       -0.079884745 -0.08170693 0.14087053 0.07968979
0001c0 a7 6d 41 3d 8d 7c 9d bc c7 38 d1 bd a7 e1 fb 3d
       0.047223713 -0.01922443 -0.102159075 0.12298899
0001d0 55 37 2b be 90 f0 f2 3d cd f2 5b 3d ed bb 4c 3e
       -0.16720326 0.1186229 0.05369835 0.19993563
0001e0 88 3d 07 be f3 fd 56 bd e7 35 68 bd f5 9b 37 3e
       -0.13207066 -0.05248828 -0.05669203 0.17930587
0001f0 9a 73 9f 3b 67 95 59 3d f8 5c 2d 3e 67 4a e6 bc
       0.0048660757 0.053120997 0.16929996 -0.02811165
000200 da 94 2b 3d 43 88 2c be 70 dc ea bd 57 d4 3c 3e
       0.041890003 -0.16848855 -0.11467826 0.18440376
000210 7a 11 0e bd 67 20 fc bc 80 22 f7 3d da 2b 3d 3e
       -0.034684636 -0.03077717 0.12067127 0.1847376
000220 e0 d8 4c bd 4d f3 80 bc 80 1d 2d 3e c0 78 5d bd
       -0.050011516 -0.015741015 0.16905785 -0.054070234
000230 f0 75 d6 3d d3 d4 3f 3e 9a 86 d0 bc 6b be 27 3e
       0.104717135 0.1873353 -0.025454808 0.16381232
000240 e0 bc 9e bd a0 ac 40 be da db 1a 3d d5 72 35 be
       -0.07750869 -0.18815851 0.037807323 -0.17719586
000250 ad af 38 3d 0d 5e f5 bc
       0.045089412 -0.029952073

conv1.bias f4 [6]
000000 82 9b 07 3e 35 54 3e 3e c5 63 1d 3e 7b 51 28 be
       0.13242915 0.1858681 0.1537009 -0.16437332
000010 53 23 7f 3d 20 2a 4a be
       0.062289547 -0.19742632

conv2.weight f4 [16, 6, 5, 5]
000000 d8 b7 fc bc ee d7 ce 3c ff 58 92 bd 30 23 ca 3b
       -0.030849382 0.025249448 -0.07145881 0.0061687455
000010 a5 a0 9a 3d 94 76 fd bc 64 6b 3f bc 56 0e db 3c
       0.07550172 -0.030940332 -0.011683319 0.026740234
000020 13 c2 88 bd 02 6c a4 bd 35 f6 5a bc 5d 29 1a bc
       -0.06677642 -0.08028413 -0.013364364 -0.009409276
000030 22 59 8f bd 3c 92 5e bb 7c c1 03 bd 24 4f f0 3c
       -0.069994226 -0.0033961674 -0.032166943 0.029334612
000040 d1 dc 26 3d 95 c9 4f 3d a2 26 62 3c ae f1 e4 3b
       0.04073793 0.050729353 0.013803156 0.0069868183
000050 24 d9 52 bd d6 d9 f1 3c 8c c8 8e 3d 7c a0 3a 3d
       -0.051476613 0.029522818 0.06971845 0.045563206
000060 fe 27 9c 3d 5f 58 27 bd e9 09 8a 3d f4 73 9d bd
       0.076248154 -0.04085576 0.067401715 -0.07688132
000070 56 a4 87 3c a9 ec 84 bd 1e 7d f7 3b ca 40 7c bd
       0.016557854 -0.06490452 0.007552757 -0.061585225
000080 04 34 7e bd 56 4d 3c bd 78 3e a6 3d 23 15 9b 3d
       -0.062061325 -0.04597219 0.08117384 0.07572391
000090 ae 33 9e bc 4b 6a 8c 3d 84 5f c9 bc 16 4d fc 3c
       -0.019311752 0.06856211 -0.024581678 0.030798476
0000a0 40 98 c5 3c 10 6d 5c 3b bd 56 57 3d e6 33 99 bd
       0.02412045 0.0033634342 0.052572954 -0.07480602
0000b0 30 79 47 3d 2d 35 0e bc fe 35 e3 bc 9c 6d 7e 3d
       0.048699558 -0.00867967 -0.027735706 0.06211625
0000c0 99 3d 20 bd e4 1d ed bc 99 c7 33 bd c8 bb 3d 3d
       -0.039121244 -0.028944917 -0.043891523 0.04632166
0000d0 d0 35 75 bc 75 2b 89 bc ba 12 d8 bc a5 7a 10 b8
       -0.014966443 -0.016744355 -0.026376117 -3.4446497e-05
0000e0 b1 ba 85 3d ab 77 95 3d a2 b9 9e bd f9 eb f2 3a
       0.06529749 0.072982155 -0.077502504 0.001853346
0000f0 2d 56 fe 3c 56 7d 70 bd 95 78 15 3c f1 88 8f 3c
       0.031046951 -0.05871328 0.009122987 0.017521353
000100 52 a1 85 bd 26 35 57 bd df e2 1f 3d 09 b6 7b bc
       -0.0652491 -0.05254092 0.03903472 -0.015363225
000110 66 31 0e bd d6 3c 7b bd 8e d4 87 bd fa da df bc
       -0.03471508 -0.061337315 -0.066323385 -0.027326096
000120 6e e2 26 3d 55 77 47 3d fa 9d 56 3d 40 c5 14 3d
       0.040743284 0.04869779 0.052396752 0.036320925
000130 0b bd 10 3d a6 a3 44 bd 5a 1c 91 bd ff 75 0e bd
       0.035336535 -0.04800763 -0.07085486 -0.0347805
000140 81 cf 06 bd 50 c8 7a 3b 14 37 9d bb b8 d6 6a bd
       -0.032912735 0.0038266368 -0.0047978256 -0.057333678
000150 ba 66 e2 bc 4f f7 8a 3c ce 35 1f 3d 57 91 a1 3d
       -0.027636874 0.016963629 0.03886967 0.078890495
000160 fd 41 d2 bb d6 b0 6c bd 83 e9 e4 bc 70 e0 49 3d
       -0.006416558 -0.05778583 -0.027943378 0.049286306
000170 30 74 78 bc 50 ec 61 bd 0a cf cf 3c a9 33 4f bc
       -0.01516442 -0.055157006 0.025367279 -0.012646594
000180 b9 be 05 3d b8 3a 29 3d db b4 12 3d 2d 82 7f 3d
       0.03265259 0.041315764 0.03581701 0.062380005
000190 7d 66 2b bc 40 c0 4e 3c 8d b6 94 bd f0 ce ee 3b
       -0.010461447 0.012619078 -0.07261381 0.0072878525
0001a0 3b 07 07 3d f4 d9 c3 bb f5 75 a6 bc cf 5e 2e 3d
       0.03296588 -0.00597691 -0.020319918 0.042570885
0001b0 b8 b5 9a 3d ae 2d 4a 3c 51 93 36 3d c9 3d b8 bc
       0.07554191 0.012339992 0.044574086 -0.022490399
0001c0 ef 1a a6 3d 2f ab 49 bd 3c d9 34 3d 87 b1 96 bc
       0.08110606 -0.04923552 0.044152483 -0.018395199
0001d0 6d 31 ac 3c 21 a5 95 bd 2a ce 09 bc d7 ad 46 bd
       0.021019662 -0.073068865 -0.00841097 -0.04850563
0001e0 9d 13 ee 3c 51 d3 af 3c af 4e 49 3d 08 5f d0 ba
       0.029062087 0.021463068 0.049147304 -0.0015897462
0001f0 73 bd 66 bb e0 f5 34 bd 2a db 68 3d d0 a8 8c 3d
       -0.0035208135 -0.044179797 0.056849636 0.06868136
000200 77 92 27 bd 77 2d b9 3a 8a dc 14 3d 7f dd f0 3a
       -0.040911164 0.001412793 0.036343135 0.0018376558
000210 98 ea a1 39 82 40 5b bc b9 91 c2 3c 20 dd 2b 3c
       0.000308831 -0.013382079 0.023751127 0.010489732
000220 70 84 75 3d e2 ef 99 bc b5 7f 03 bc 9a 23 75 3b
       0.059940755 -0.018791143 -0.008026053 0.0037405253
000230 a1 15 84 bd 3a a6 28 3d 57 2c ed bc 47 ef 95 bd
       -0.06449438 0.04117415 -0.028951807 -0.07321029
000240 f2 82 84 3d 2a 32 59 3d 01 31 bb 3b 9c 24 5d ba
       0.06470288 0.053026356 0.005712629 -0.0008435936
000250 46 3a 8c bc d0 11 0a bc 28 77 9b 3d 18 2f aa 3c
       -0.01711763 -0.008427098 0.075910866 0.02077441
000260 ef b4 3d 3d 2b aa 98 3d 3e fa ce 3c c4 b8 84 3d
       0.04631513 0.07454332 0.02526581 0.06480554
000270 ac 57 80 bd a5 82 99 3d e5 20 d8 bc 25 79 2b bb
       -0.06266722 0.074956216 -0.026382873 -0.0026164737
000280 70 37 19 bd 0c 39 9c bd ac 4a a1 3d 29 14 91 3d
       -0.037406385 -0.07628068 0.07875571 0.07083923
000290 30 a1 d5 bc 6e 0b f8 3b 78 fe 77 3d 2c bc a6 bd
       -0.026077837 0.007569722 0.060545415 -0.0814136
0002a0 ff ff 49 bd 31 98 86 3d b6 b2 3e 3d 34 dd 4d 3d
       -0.049316403 0.06571997 0.04655715 0.050259784
0002b0 04 68 9c bc 29 c2 35 bd 61 6a 96 bd a4 8c c7 bc
       -0.019092567 -0.04437462 -0.07344509 -0.024359055
0002c0 11 8d 45 bc c1 b4 67 3d 2e 6c 9f bd 9b 94 d1 3c
       -0.012057559 0.056568865 -0.077843055 0.025583556
0002d0 07 5e 9e 3d fa 7a da 3c 7d e0 01 bd 63 80 2e bd
       0.07732778 0.026669968 -0.03170823 -0.042602908
0002e0 5c 11 fc bb 16 db 84 3d 2c 16 2a bd 05 1b e7 3c
       -0.007692499 0.064871 -0.04152505 0.028211126
0002f0 74 74 6b 3d d5 4c eb bc 3e 52 36 3d 50 05 87 bd
       0.057484105 -0.02872316 0.044512026 -0.0659281
000300 fb d7 8c bc b2 bc 49 bd 3a 1b 87 3c e8 6d 72 3c
       -0.017192831 -0.04925222 0.016492475 0.0147967115
000310 9f 46 57 3c b3 72 84 3d 63 4e 40 3d e1 b5 9d 3b
       0.013139396 0.0646719 0.046949755 0.0048129414
000320 f2 1b 43 bd 51 4b c0 bb 04 bb ab 3c 6c c2 a3 bd
       -0.047634073 -0.0058683534 0.0209632 -0.079960674
000330 27 ef 47 bd 71 6d 29 3d 30 13 61 ba f3 6e a2 3c
       -0.048812058 0.041364137 -0.0008585928 0.019828295
000340 a4 93 8c bd 58 33 83 bc 25 ef 0f bc 22 be 9e bd
       -0.06864098 -0.016015694 -0.008785044 -0.07751109
000350 11 b3 a6 3d fd 21 86 bc f4 7c 09 bd f7 09 5b bc
       0.08139623 -0.016373629 -0.03356643 -0.013369075
000360 7d 88 6f bd 02 4c 90 bd b6 98 5f 3d f3 e1 94 3d
       -0.058479775 -0.07045747 0.054588996 0.07269659
000370 01 bc ff bb be 53 a0 3d 5b 56 e2 3b 52 fa 8c 3d
       -0.0078043942 0.078284726 0.006907267 0.06883682
000380 42 75 85 3c f4 9e a2 bd bd ea 69 bd ea 6b 87 bc
       0.016291264 -0.07940474 -0.05710863 -0.01653095
000390 e5 08 0c bd ed 98 94 bc 57 3a 47 3d bc 77 41 3d
       -0.03418817 -0.018139327 0.04863962 0.04723333
0003a0 bc ac 86 3a c7 e9 44 3d 55 ac ea 3c 91 8a 30 3d
       0.0010274868 0.04807451 0.028646627 0.043100897
0003b0 2c 74 21 bd 1a 15 75 bd ab c1 2f 3d e9 8b 98 bd
       -0.03941743 -0.059834577 0.042909306 -0.07448561
0003c0 d0 72 b6 3c 2b dc a8 3c 15 b0 4e bd 11 45 20 bd
       0.022271544 0.020612797 -0.050460894 -0.039128367
0003d0 f7 b8 0d 3d 0c b3 6b 3d 41 2d e6 3b da a5 81 bb
       0.034600224 0.0575438 0.0070244377 -0.0039565386
0003e0 b1 a2 c1 bc 49 b3 8f bd c0 f2 a7 3a 01 e4 6a bd
       -0.023637148 -0.07016618 0.0012813434 -0.057346348
0003f0 e4 65 43 bc c1 d9 6c bd fe 1f a2 bc 93 55 60 bd
       -0.011926148 -0.057824854 -0.019790646 -0.05476911

conv2.bias f4 [16]
000000 62 6b 94 bd 0f cf d7 bc 3e 69 34 bd bc e8 24 bd
       -0.07247044 -0.02634385 -0.04404568 -0.040261015
000010 11 c2 0b 3c 8b 60 bb 3c 52 ab a5 3d e8 d2 5b bd
       0.008530156 0.022873184 0.080893174 -0.053667933
000020 0d de 06 3a e6 f4 f4 3c 03 4c 07 3d 19 f3 2b bd
       0.00051447825 0.029901933 0.033031475 -0.041979883
000030 88 4e 71 bd 0a 83 d0 3c f7 27 85 bd d2 86 27 3d
       -0.058912784 0.02545311 -0.06501763 0.04090006

fc1.bias f4 [120]
000000 aa 9d f3 bc 57 16 20 bd 9a 2d 81 ba ba 6a 8d bc
       -0.029738266 -0.039083805 -0.0009855509 -0.017262805
000010 53 f4 23 bc c7 64 58 3c 9f c9 1d bd 9d b8 ea 3c
       -0.010006982 0.013207621 -0.03852236 0.028652484
000020 fb 3b 2c 3d 33 d1 cb ba d3 e7 c0 3c 42 1e 39 3d
       0.04204939 -0.0015550017 0.023548042 0.04519487
000030 07 8c 06 3d e7 ad ee 3c fa 2d 48 bd 2d 95 a8 bc
       0.032848384 0.029135657 -0.04887197 -0.020578945
000040 f0 c2 14 bd 00 b1 82 3b 32 17 15 3d 67 ba 3c 3a
       -0.03631872 0.003988385 0.036399074 0.0007199407
000050 13 64 aa 3c df a4 01 3d 0b 6b 48 bd 4d f4 e0 3b
       0.020799672 0.031651374 -0.04893021 0.0068650604
000060 00 88 f8 ba b3 a8 4e 3b 90 e3 be bc fa 83 03 3c
       -0.001896143 0.0031533658 -0.02330187 0.008027071
000070 c0 57 89 3c fb d6 32 bd c2 a0 2d 3d a7 0e 26 3d
       0.016765475 -0.043662053 0.04238964 0.040541317
000080 80 b2 07 3c 63 ac 86 bc 07 97 fd bc 85 ec 3a 3d
       0.008282304 -0.016439622 -0.030955805 0.04563572
000090 90 d4 d8 bc 62 5f 14 bd 50 03 bc bc 67 fe b5 3c
       -0.026468545 -0.036223777 -0.022950798 0.022216035
0000a0 0d de d9 bc a0 42 1b 3d c3 ca ce 3c 83 97 35 3d
       -0.02659514 0.037905335 0.025243169 0.044333946
0000b0 83 fd bd bc cd 5b a3 bb 58 9d 3e 3d 1a ec c1 3b
       -0.023192173 -0.0049853087 0.046536773 0.005918038
0000c0 33 29 77 ba 0d 30 ff bc 7b 83 0d 3d 2a c8 8c 3c
       -0.00094284414 -0.031150842 0.034549218 0.01718529
0000d0 27 54 d4 bc fd 4f c8 3c 5d f9 82 3c 8b 87 0d 3d
       -0.025919033 0.024452204 0.015988046 0.034553092
0000e0 93 43 d3 bc cd 8c cf 3c 13 7a 24 bd ff dd 43 3d
       -0.025789058 0.025335694 -0.04015548 0.047819134
0000f0 0b aa 0d 3d cd d2 82 bb e7 b4 51 bc 42 4d 42 3d
       0.034585994 -0.0039924146 -0.012799478 0.04743696
000100 33 ed e2 ba ea 6c f5 bc ed 45 8a 3c fa 0f 41 3c
       -0.0017313123 -0.02995916 0.016879046 0.011783594
000110 80 0f e8 3c 1a 11 6d bb 2b 3a 3b bd 57 d6 0c 3d
       0.028327703 -0.0036173523 -0.04570977 0.034384098
000120 02 42 28 bd c0 f1 91 bc b0 10 e5 bc f3 e0 a1 3b
       -0.041078575 -0.01781547 -0.027962059 0.004940146
000130 4d 9d 5a bb da 2c d8 3b f3 3d 94 3c a7 95 ca bb
       -0.0033357919 0.0065971436 0.018095946 -0.0061823907
000140 8d 9e 4b 3c 27 41 d2 bc 5d 99 2e bd db d9 17 3d
       0.012427938 -0.025665833 -0.042626727 0.037072998
000150 f3 50 30 bd d3 87 ce bc 03 17 f4 bc 4d 0b 4e bb
       -0.04304595 -0.02521125 -0.02979613 -0.0031439841
000160 07 31 2f bc 25 81 10 3d a3 d8 03 3d 63 6a f2 3c
       -0.010692841 0.03527941 0.032189023 0.029591745
000170 93 54 47 bc e7 1a 38 bd 4d 2c 8d bb f3 82 05 3c
       -0.01216616 -0.04494753 -0.0043082596 0.0081488965
000180 fa 0f 90 bc ed 77 03 bc 3d b7 f7 bc 45 2d 3b 3d
       -0.017585743 -0.008024198 -0.030238742 0.04569747
000190 53 25 e7 3c da e5 0e bc 5d a7 3c 3d fd 6d ba 3c
       0.02821604 -0.008721793 0.046058048 0.022757525
0001a0 d3 7d 4d 3c 2b 27 1c 3d 9d c9 1d bd 23 b0 a9 bc
       0.012542206 0.03812329 -0.03852235 -0.020713871
0001b0 da ed 8d 3c d7 01 c5 bc b3 f6 17 bd c7 0e 77 bc
       0.01732533 -0.024048729 -0.037100505 -0.015079207
0001c0 f3 ad d9 bc 5a e2 51 3c d8 7a 2d bd 67 ac 5d bb
       -0.026572203 0.012810314 -0.04235348 -0.0033824684
0001d0 87 3d 16 3c cd 59 40 3c 13 e2 9a bc 2b 13 17 3d
       0.009169943 0.01174016 -0.018906629 0.036883514

fc2.bias f4 [84]
000000 d6 e5 14 ba b7 4b 7f 3d f0 21 74 bd 15 44 6a 3d
       -0.000568 0.062328067 -0.059602678 0.057193834
000010 1d 11 76 3c 86 83 5e 3d 5f b4 53 3c 76 a9 d3 ba
       0.015018729 0.05432465 0.012921422 -0.0016148526
000020 d2 10 26 3d 43 b1 19 bd bf 9d 80 3d 49 2b f4 bb
       0.040543385 -0.037522566 0.06280088 -0.007451449
000030 53 fd 9c 3c b1 87 a3 bd 91 95 39 bd 6e 52 90 bd
       0.019163763 -0.079848655 -0.045308653 -0.07046972
000040 9d eb 9c 3c d1 c3 b7 bd 3d 15 27 bd 30 9d 85 3d
       0.019155318 -0.08972896 -0.04079174 0.06524122
000050 5a ac 50 3d 3c e8 8b 3d 81 32 2d 3d 4e e7 20 3d
       0.050945617 0.068314046 0.042284492 0.03928309
000060 75 b5 3f bd 7f 7d e8 3c e8 94 b9 bc 3b 83 80 3b
       -0.04680391 0.028380154 -0.022654012 0.003921894
000070 c8 ef 0b bd f0 71 8a 3b a7 55 ed 3c ac d2 a4 3c
       -0.03416422 0.004225008 0.028971506 0.020119987
000080 00 ea 8a bd 91 a0 19 3d ac 21 a9 bd da 06 16 3c
       -0.06782913 0.037506644 -0.082583755 0.009156907
000090 fa 72 8b 3d eb 37 8d bd 64 9c 6e bd 91 65 b5 3d
       0.068090394 -0.06895431 -0.058254614 0.08857263
0000a0 c7 39 4a 3d 5c cc 11 bd 87 4e 79 bd 8f d2 15 3d
       0.049371507 -0.035595283 -0.060865905 0.036577757
0000b0 50 5d 1d 3c f2 94 94 bd 05 50 ab bd 10 36 eb 3b
       0.009604767 -0.072549716 -0.08364872 0.0071780756
0000c0 62 2e ba 3c 86 57 74 3d ca 7b a9 bd 06 27 9c 3d
       0.022727195 0.05965378 -0.08275564 0.07624631
0000d0 6c 39 b1 bd 5d cd 5b 3d e7 bd 0a bd cc 58 b6 bc
       -0.086535305 0.053662647 -0.03387251 -0.022259139
0000e0 af 44 9b bd b4 3a b0 bd 99 48 8d 3d a8 6f b2 bd
       -0.0758146 -0.08604947 0.068986125 -0.08712703
0000f0 e1 a8 13 3d 17 06 33 3d 92 fe 07 3d c2 96 f9 bc
       0.036049727 0.04370698 0.03320176 -0.030467395
000100 3c 9f 04 3d 41 02 89 bd be e9 b8 3d 37 6d 18 3c
       0.03237842 -0.06689883 0.09028958 0.009303383
000110 0d 22 29 3d 97 41 03 bd 00 27 56 3d 64 e8 13 bd
       0.04129224 -0.032044973 0.052283287 -0.036110297
000120 9d 5d 6c 3d cf cb 48 3d 83 48 ab 3d 34 8a c4 3c
       0.057706464 0.049022492 0.0836344 0.023991682
000130 2b 75 06 3c 8c 8b 6a 3d 20 df 41 bd 45 4d 92 3c
       0.008206646 0.05726199 -0.04733193 0.01785911
000140 f0 fc 27 3c f3 04 c1 bc 3b d9 31 3d e6 10 42 bc
       0.010253176 -0.02356193 0.043420058 -0.011844849

fc3.bias f4 [10]
000000 04 c4 5d 3d 20 4d 90 bc 82 7a be bd a7 95 8f 3d
       0.054142013 -0.017614901 -0.0930071 0.07010966
000010 c4 5e 35 bd af da 8b 3c 1b 99 d8 bd 2a 1b bc bd
       -0.04427983 0.01707205 -0.105760776 -0.09184869
000020 c6 9d 6b 3c 69 dd 8b bc
       0.014380878 -0.01707335
