onnx_tutorial/my_image_classifier.onnx (onnx, 249749 bytes, 7 tensors)

conv1.weight f4 [6, 1, 5, 5]
0.19240634 -0.17564619 0.06208661 -0.02279513 -0.15840852 0.1708741 0.1363827 -0.11978107
-0.003166318 0.15786831 -0.04785843 0.07619226 -0.028798128 -0.18531118 -0.10384691 0.13406599
-0.0010950804 -0.029967858 -0.11663826 0.07182558 -0.07280772 -0.057727482 -0.042544246 -0.10868132
-0.04682982 0.13837035 0.004367781 -0.03029759 -0.06174965 -0.16194396 0.025372123 -0.016730238
0.0059650424 0.09197245 0.021546626 0.15096791 0.18635026 -0.18201354 0.12948588 -0.077878766
0.09182642 0.16526179 0.13611138 -0.057965256 -0.14302309 -0.1679333 0.07620745 0.08997376
-0.12605894 0.12052617 0.01128676 0.1910765 0.13351062 0.07824574 -0.11941423 -0.1637322
0.0033123016 0.10059891 0.0021783113 0.16027103 0.14823349 0.06754611 0.13487339 0.19073665
-0.078540444 0.19260453 -0.0513314 -0.079349734 0.09149163 0.16856427 0.18749073 0.12136076
0.13315849 -0.04332099 -0.09412589 0.09079101 0.13806792 -0.08705034 -0.018210744 -0.16047023
-0.111159064 0.021203233 0.1472209 0.19461583 0.18850195 -0.15777412 -0.021843387 0.18053305
0.103046276 -0.15630555 -0.12543344 0.014779068 -0.1377828 0.0639951 0.04609995 -0.07051492
0.06694167 -0.18627949 -0.13268225 -0.10378461 -0.16731237 -0.17347601 -0.13180168 0.17724231
-0.06506445 -0.15503712 -0.0086608175 0.12718415 -0.19328347 0.036113955 0.032847833 -0.049988177
0.062837414 0.07255977 0.08618696 -0.120542526 0.15177397 -0.08664 0.09128421 -0.082386926
-0.05102546 -0.16859083 0.19838606 0.15462554 0.12982221 0.0021935941 -0.14642158 -0.058855414
0.10258799 -0.13726602 0.019267155 -0.04862981 -0.076967694 0.008164907 -0.15764777 -0.11779282
0.026854396 0.113372706 -0.13697317 0.14901757 0.081510805 0.09373992 0.06651785 -0.1410551
0.1577777 -0.11986716 -0.08930445 -0.036367226 -0.15330766 0.18766879
00000000: 2b06 453e 98dc 33be 874e 7e3d dabc babc
00000010: d835 22be 9ff9 2e3e e8a7 0b3e c74f f5bd
00000020: 0082 4fbb 3ba8 213e 3307 44bd b00a 9c3d
00000030: 0dea ebbc 37c2 3dbe b0ad d4bd 9848 093e
00000040: cd88 8fba 277f f5bc 0ae0 eebd 4a19 933d
00000050: 371c 95bd a773 6cbd e042 2ebd 5094 debd
00000060: a0d0 3fbd f5b0 0d3e 9a1f 8f3b a732 f8bc
00000070: 33ed 7cbd a3d4 25be 33d9 cf3c da0d 89bc
00000080: 6776 c33b 0d5c bc3d 8d82 b03c 5597 1a3e
00000090: 9ad2 3e3e c261 3abe f297 043e e77e 9fbd
000000a0: 7d0f bc3d 633a 293e c860 0b3e fa6c 6dbd
000000b0: a574 12be b5f6 2bbe a712 9c3d 2a44 b83d
000000c0: 9815 01be 6dd6 f63d 1aec 383c 8fa9 433e
000000d0: 02b7 083e 4d3f a03d 738f f4bd 6aa9 27be
000000e0: 3313 593b cd06 ce3d 00c2 0e3b 171e 243e
000000f0: 85ca 173e 9d55 8a3d 401c 0a3e 7850 433e
00000100: d0d9 a0bd 1f3a 453e e040 52bd 1d82 a2bd
00000110: f75f bb3d 1d9c 2c3e 92fd 3f3e fd8b f83d
00000120: b35a 083e 5a71 31bd 13c5 c0bd a3f0 b93d
00000130: ad61 0d3e 7347 b2bd b32e 95bc 4f52 24be
00000140: 5da7 e3bd 67b2 ad3c 13c1 163e 5f49 473e
00000150: a806 413e 8a8f 21be e7f0 b2bc a8dd 383e
00000160: ed09 d33d 900e 20be a071 00be e723 723c
00000170: ef16 0dbe dd0f 833d 4dd3 3c3d 206a 90bd
00000180: b718 893d 0dc0 3ebe dbdd 07be 078d d4bd
00000190: ef53 2bbe b2a3 31be 05f7 06be 027f 353e
000001a0: 8340 85bd 0dc2 1ebe 1ae6 0dbc 903c 023e
000001b0: 1aec 45be 3aec 133d 738b 063d 67c0 4cbd
000001c0: e7b0 803d 379a 943d ca82 b03d 00df f6bd
000001d0: a36a 1b3e 5070 b1bd 37f3 ba3d 7aba a8bd
000001e0: 1300 51bd 13a3 2cbe b725 4b3e 2856 1e3e
000001f0: 1df0 043e 67c2 0f3b 8aef 15be 6012 71bd
00000200: a719 d23d 778f 0cbe 27d6 9d3c 0d30 47bd
00000210: 3da1 9dbd 1ac6 053c 6b6e 21be 5d3d f1bd
00000220: c0fd db3c f32f e83d b242 0cbe 1098 183e
00000230: 23ef a63d b7fa bf3d 833a 883d c070 10be
00000240: 7a90 213e ea7c f5bd 40e5 b6bd cdf5 14bd
00000250: affc 1cbe 3f2c 403e

conv1.bias f4 [6]
-0.03396175 0.1870909 0.10024591 -0.04119873 0.17601815 0.086500384
00000000: 7a1b 0bbd c294 3f3e ba4d cd3d 00c0 28bd
00000010: 1a3e 343e 1d27 b13d

conv2.weight f4 [16, 6, 5, 5]
0.008459296 0.007505287 -0.0665336 -0.030055234 0.0652592 -0.030879702 -0.019432787 0.027052686
-0.025725732 -0.025536893 -0.06883244 0.033062514 -0.031461038 -0.04976675 -0.059663482 0.044533964
-0.07532243 0.01426484 -0.04057438 0.07604631 -0.010800899 0.0018860794 -0.009714301 0.07410697
0.017245917 0.06552422 0.04130821 -0.07858248 0.055655345 -0.07886794 -0.01575842 -0.029664993
-0.071998045 -0.011606863 0.028415283 -0.05263664 -0.055414047 0.0063118557 -0.05010656 0.0052321395
-0.014865031 -0.043141816 -0.016530385 -0.050616443 -0.077492364 -0.010456833 0.071891725 -0.006005117
-0.071018726 -0.075823046 -0.0122381905 0.042956084 -0.04328378 0.019583626 0.036714077 -0.014256392
-0.024461586 -0.0031661575 -0.06313992 -0.07528487 -0.017123071 -0.048125338 0.03637731 0.019100208
-0.042427063 -0.04899272 -0.013570235 0.07232126 0.0385215 -0.060608294 -0.03215932 -0.025663555
0.040091515 -0.029261475 -0.0607363 -0.072865814 -0.056843735 0.06410435 -0.07145231 0.069920704
0.046817325 0.008208301 -0.030538682 0.043791812 -0.06414258 0.0689761 0.014548996 0.052372456
0.019641783 -0.06664863 -0.032846577 -0.059660252 -0.030996619 -0.06767878 -0.027341183 -0.05064567
0.020698743 -0.04011006 0.037632734 0.012876108 0.026361536 0.021614004 -0.047018327 -0.043321047
-0.07902054 0.04081527 0.07648071 0.012102517 0.030718809 0.075166635 0.034423914 -0.07379343
0.015227035 -0.013360597 0.011904092 -0.06633226 -0.04384824 -0.018020568 0.030670036 -0.043233868
0.027091326 0.05137157 -0.03972483 -0.015415493 0.033878006 -0.062497992 0.07683232 0.06589266
-0.05233433 -0.042963617 -0.041085053 -0.08005014 0.04910441 -0.045930065 -0.018740539 0.049742248
0.03252205 0.046899922 -0.03368512 0.06631299 -0.047759145 0.023086734 0.025418691 0.033594504
-0.038799465 0.037197407 0.05693705 0.040752083 -0.0014779873 -0.070038 -0.043915417 -0.009107472
-0.01743605 0.03187495 -0.07751403 -0.06479841 0.040110525 0.031273603 -0.042432718 0.008428247
0.059155185 0.0708655 0.04689334 0.007414416 -0.07461057 -0.0035271693 0.012251798 -0.07020251
-0.07431642 -0.020686887 -0.051893633 0.040744502 0.034250535 -0.017149635 0.07223377 0.055028953
-0.0066952347 0.01251424 -0.0075822393 0.018545607 -0.067362845 -0.057726126 0.075670764 0.0044300198
0.037245832 0.005216829 -0.030420987 -0.028411059 0.015324807 0.007279297 0.0014687211 0.034501713
-0.0054300097 0.037954394 0.04734908 -0.031446252 -0.06951523 -0.06407904 -0.046955228 0.023617428
-0.05771659 0.044793643 -0.062965624 -0.014856933 0.073705435 0.048075356 -0.032375794 -0.03396479
-0.014250103 0.05624407 0.03548952 -0.020478738 -0.03448934 -0.016135171 -0.027235692 0.04430085
0.07873064 -0.07283062 0.025740243 -0.058409598 0.0056654704 -0.009588205 0.054170944 0.047346003
-0.04060795 0.062374156 -0.06436518 0.05694762 -0.06620674 0.050545547 0.07551309 -0.047294892
0.0037329237 -0.032282945 0.023251345 0.04598179 0.009765801 0.021571197 -0.048872598 0.03641092
0.05972302 0.033563707 0.010896257 0.042788077 -0.056361396 0.05421483 -0.034025583 0.04066682
0.03585157 -0.07212836 0.06780435 -0.015288842 0.028027369 0.037967846 -0.041801587 -0.043467555
00000000: dc98 0a3c e9ee f53b c542 88bd 6536 f6bc
00000010: 9ea6 853d 6ef7 fcbc 8231 9fbc 989d dd3c
00000020: c5be d2bc bf32 d1bc 06f8 8cbd 8f6c 073d
00000030: 4add 00bd 38d8 4bbd b261 74bd 3f69 363d
00000040: a542 9abd 13b7 693c 5231 26bd 2bbe 9b3d
00000050: 41f6 30bc 5336 f73a bb28 1fbc 65c5 973d
00000060: 4f47 8d3c 9031 863d cc32 293d daef a0bd
00000070: dcf6 633d 8485 a1bd cd17 81bc 0004 f3bc
00000080: b673 93bd b62a 3ebc 2bc7 e83c 8499 57bd
00000090: d7f9 62bd afd3 ce3b 893c 4dbd 5e72 ab3b
000000a0: 758c 73bc 79b5 30bd bb6a 87bc 3053 4fbd
000000b0: 51b4 9ebd 2353 2bbc f83b 933d 93c6 c4bb
000000c0: 4472 91bd 1d49 9bbd b182 48bc b8f2 2f3d
000000d0: 554a 31bd d76d a03c 8061 163d a493 69bc
000000e0: aa63 c8bc 4f7f 4fbb 814f 81bd f42e 9abd
000000f0: af45 8cbc 131f 45bd 6000 153d 0a78 9c3c
00000100: 00c8 2dbd 97ac 48bd b155 5ebc 2b1d 943d
00000110: b8c8 1d3d 6740 78bd 7eb9 03bd 603c d2bc
00000120: 0037 243d c3b5 efbc a0c6 78bd ac3a 95bd
00000130: fad4 68bd 2449 833d 9755 92bd 9632 8f3d
00000140: 86c3 3f3d 1c7c 063c 422c fabc 0b5f 333d
00000150: 2f5d 83bd 5743 8d3d ea5e 6e3c 8084 563d
00000160: cee7 a03c 147f 88bd 228a 06bd 4f5e 74bd
00000170: 9fec fdbc 2c9b 8abd 9efa dfbc d671 4fbd
00000180: 6990 a93c 724a 24bd c824 1a3d 50f6 523c
00000190: 26f4 d73c da0f b13c 4a96 40bd 6971 31bd
000001a0: 85d5 a1bd ea2d 273d eba1 9c3d a349 463c
000001b0: 03a6 fb3c f7f0 993d 1700 0d3d 0321 97bd
000001c0: d07a 793c 68e6 5abc 6109 433c 35d9 87bd
000001d0: 369a 33bd df9f 93bc ba3f fb3c ff15 31bd
000001e0: a1ee dd3c ff6a 523d 81b6 22bd 4491 7cbc
000001f0: aac3 0a3d e5fd 7fbd 435a 9d3d bbf2 863d
00000200: 865c 56bd 9efa 2fbd cd48 28bd 54f1 a3bd
00000210: b521 493d 2a21 3cbd c285 99bc 87be 4b3d
00000220: d735 053d 221a 403d 69f9 09bd 1bcf 873d
00000230: 189f 43bd 6420 bd3c dc3a d03c 649a 093d
00000240: 30ec 1ebd 4f5c 183d d336 693d a8eb 263d
00000250: 06b9 c1ba 1570 8fbd a7e0 33bd 8237 15bc
00000260: 0cd6 8ebc 4f8f 023d adbf 9ebd 07b5 84bd
00000270: ef4a 243d c018 003d eecd 2dbd a116 0a3c
00000280: b54c 723d ee21 913d 3b13 403d a1f4 f23b
00000290: 6dcd 98bd 1528 67bb c4bb 483c 55c6 8fbd
000002a0: 3533 98bd 8c77 a9bc 6b8e 54bd b5e3 263d
000002b0: 4a4a 0c3d 647d 8cbc 4cef 933d 0a66 613d
000002c0: b363 dbbb 8708 4d3c 6f74 f8bb f5ec 973c
000002d0: 88f5 89bd 3b72 6cbd 46f9 9a3d b329 913b
000002e0: 168f 183d eff1 aa3b 6f35 f9bc 4fbe e8bc
000002f0: e614 7b3c 2b87 ee3b 1a82 c03a ab51 0d3d
00000300: 39ee b1bb 1176 1b3d 1cf1 413d c9cd 00bd
00000310: 005e 8ebd df3b 83bd 2054 40bd 5679 c13c
00000320: 3b68 6cbd 8a79 373d 1ff4 80bd 7e6a 73bc
00000330: e0f2 963d aaea 443d 7b9c 04bd aa1e 0bbd
00000340: 4479 69bc 2f60 663d 755d 113d 07c3 a7bc
00000350: b244 0dbd e82d 84bc 631d dfbc cf74 353d
00000360: 883d a13d 3828 95bd 34dd d23c e73e 6fbd
00000370: 69a5 b93b d917 1dbc 5ae2 5d3d e2ed 413d
00000380: 8654 26bd 0b7c 7f3d e4d1 83bd e841 693d
00000390: 6697 87bd d908 4f3d 9ba6 9a3d 4ab8 41bd
000003a0: 11a4 743b 1f3b 04bd 9b79 be3c 6757 3c3d
000003b0: bd00 203c 14b6 b03c a22e 48bd 9e23 153d
000003c0: 20a0 743d 197a 093d 3786 323c 8d42 2f3d
000003d0: 35db 66bd 5f10 5e3d 695e 0bbd 4092 263d
000003e0: 19d9 123d 09b8 93bd 02dd 8a3d 0d7e 7abc
000003f0: a799 e53c 2c84 1b3d 2438 2bbd 090b 32bd

conv2.bias f4 [16]
0.006160141 0.0068641966 0.073976345 0.045786586 -0.075274035 0.06207318 0.03518023 0.032401364
0.062555626 -0.0671042 -0.069555975 0.06816934 -0.00041769905 -0.033610262 0.025410855 0.023180565
00000000: 02db c93b 0eed e03b e980 973d b78a 3b3d
00000010: 4629 9abd 7240 7e3d 2519 103d 4bb7 043d
00000020: 2a1d 803d ed6d 89bd 5d73 8ebd 5e9c 8b3d
00000030: 9efe dab9 eaaa 09bd 6d2a d03c 2be5 bd3c

fc1.bias f4 [120]
-0.04649939 0.03910876 0.02056306 -0.005074656 0.041880455 0.03405884 0.039783116 -0.030697418
0.0039527058 -0.008829606 0.0040227175 0.029653663 -0.03983683 -0.03530068 -0.013035918 -0.035264786
0.026466299 -0.023859799 -0.026174635 0.032418337 -0.04512697 -0.033451136 0.025117809 -0.03735712
0.009012008 -0.00089011196 -0.043590616 -0.0046246946 0.0031018616 0.025515664 0.04335275 0.03741891
0.0448941 0.021594603 -0.0020571172 0.028607339 0.024021525 -0.04580279 -0.049165603 0.037791498
0.032457568 -0.008833832 0.031148953 0.049981266 -0.04410119 0.026177173 0.011546171 0.0085887555
-0.048830964 0.043691374 0.01996932 -0.04161259 0.0026660443 -0.038741898 0.020568324 0.03552975
-0.019233394 0.048340913 0.042867955 0.006388718 0.046496492 0.035354335 0.03311901 -0.0057379007
0.042269 -0.03420336 -0.048103232 -0.024990976 0.036097884 0.045616467 0.015669335 -0.039623596
-0.044944473 -0.032676287 0.016846681 -0.020288158 0.015272665 0.010479259 -0.005285275 0.0028342844
0.017717196 -0.04237122 0.023690958 -0.00952059 -0.013401371 -0.028463477 -0.023862159 -0.029395377
-0.027303612 -0.012721223 0.035897918 0.00049841404 0.039614744 0.018023938 0.041835457 0.047764182
-0.037944745 0.02320286 0.011273873 0.03999559 0.015313697 -0.024884885 -0.048283823 -0.046521284
-0.0128643755 0.0030781447 -0.020888632 -0.0069604875 -0.008545167 -0.013463211 0.019617856 -0.022442723
-0.02153675 0.029332334 0.02798568 -0.032111216 -0.04590829 -0.0059663714 -0.0081488015 0.023120552
00000000: 2576 3ebd 8230 203d dd73 a83c 4d49 a6bb
00000010: d78a 2b3d 4881 0b3d 9ff3 223d 2779 fbbc
00000020: b385 813b 0daa 10bc 00d1 833b 3dec f23c
00000030: f22b 23bd 7297 10bd 9a94 55bc cf71 10bd
00000040: dacf d83c a075 c3bc 306c d6bc 17c9 043d
00000050: 0fd7 38bd 0f04 09bd ddc3 cd3c c803 19bd
00000060: 1aa7 133c 6756 69ba 138c 32bd c08a 97bb
00000070: 9a48 4b3b 3a06 d13c a792 313d 9244 193d
00000080: e0e2 373d 2ae7 b03c b3d0 06bb f059 ea3c
00000090: cac8 c43c b59b 3bbd df61 49bd 42cb 1a3d
000000a0: 3af2 043d c7bb 10bc 172c ff3c 28b9 4c3d
000000b0: 73a3 34bd 8371 d63c 272c 3d3c dab7 0c3c
000000c0: fa02 48bd baf5 323d b396 a33c f771 2abd
000000d0: cdb8 2e3b d3af 1ebd e77e a83c a587 113d
000000e0: 5a8f 9dbc 1f01 463d 4f96 2f3d 7358 d13b
000000f0: 1b73 3e3d b5cf 103d cda7 073d 0005 bcbb
00000100: 4222 2d3d d318 0cbd e507 45bd e0b9 ccbc
00000110: 60db 133d 55d8 3a3d fa5c 803c 5a4c 22bd
00000120: b217 38bd 92d7 05bd 0d02 8a3c 5a33 a6bc
00000130: 333a 7a3c 33b1 2b3c 1a30 adbb 67bf 393b
00000140: a723 913c 728d 2dbd 8a13 c23c 40fc 1bbc
00000150: 6d91 5bbc 3d2c e9bc 937a c3bc 93ce f0bc
00000160: d3ab dfbc ad6c 50bc b209 133d 00a8 023a
00000170: 1243 223d f0a6 933c a85b 2b3d 60a4 433d
00000180: f36b 1bbd ed13 be3c 0db6 383c 6ad2 233d
00000190: 4de6 7a3c 63db cbbc 42c5 45bd 1a8d 3ebd
000001a0: 1ac5 52bc b3ba 493b a31e abbc cd14 e4bb
000001b0: 0701 0cbc cd94 5cbc a0b5 a03c cdd9 b7bc
000001c0: d76d b0bc 5d4a f03c 3a42 e53c 0d87 03bd
000001d0: 550a 3cbd 8d81 c3bb 8d82 05bc 5067 bd3c

fc2.bias f4 [84]
0.0021801102 -0.07200464 -0.08325891 0.019910732 0.0047207177 -0.033012867 0.045585055 0.087194726
0.03916866 -0.081134 -0.057299905 0.05638726 -0.08844377 -0.05046217 -0.08861119 0.07675644
0.065430544 0.07904098 0.015963506 0.039720576 -0.085314475 0.024535425 0.07701342 -0.06300464
0.010873194 0.0439961 -0.058417164 0.07104705 -0.07095295 -0.0026134532 0.04516044 -0.05054579
-0.03926843 0.08150359 0.009949496 -0.082502 -0.06276376 0.008376007 -0.06616991 0.02534351
0.014431271 -0.041035526 -0.08889364 -0.050028656 -0.04609233 0.025404124 -0.074364476 -0.06876913
-0.004808483 0.015397726 -0.08898422 0.084855705 -0.025714008 0.08465227 0.01467991 -0.050010588
-0.052565616 -0.010713986 0.033048548 0.08694413 0.040481053 0.013618137 0.02055492 -0.02314156
0.019570358 -0.08430369 0.01124454 -0.049393196 0.0010690306 -0.07793458 0.07625168 0.027618906
0.03250685 0.0852442 -0.008323619 -0.082057334 0.026642876 -0.037753083 -0.019226085 -0.012106318
0.087356776 0.038440984 -0.054428965 -0.067515865
00000000: 2ee0 0e3b 2b77 93bd a683 aabd d51b a33c
00000010: 40b0 9a3b 8038 07bd 65b7 3a3d 2693 b23d
00000020: 516f 203d 9529 a6bd 4eb3 6abd 54f6 663d
00000030: 0222 b5bd 6cb1 4ebd c979 b5bd 7b32 9d3d
00000040: 7300 863d 3de0 a13d e6c5 823c 0bb2 223d
00000050: 5bb9 aebd 84fe c83c 36b9 9d3d 9408 81bd
00000060: 7b25 323c 4135 343d d646 6fbd 1e81 913d
00000070: c84f 91bd 7846 2bbb 27fa 383d 1a09 4fbd
00000080: efd7 20bd 5beb a63d 3603 233c cff6 a8bd
00000090: 498a 80bd 853b 093c 1784 87bd 319d cf3c
000000a0: 2371 6c3c de14 28bd de0d b6bd d9ea 4cbd
000000b0: 50cb 3cbd 4f1c d03c 674c 98bd d4d6 8cbd
000000c0: 7b90 9dbb be46 7c3c 5c3d b6bd d4c8 ad3d
000000d0: 2fa6 d2bc 2b5e ad3d 0184 703c e7d7 4cbd
000000e0: 0b4f 57bd b789 2fbc ea5d 073d c40f b23d
000000f0: 76cf 253d 9b1e 5f3c cb62 a83c 5e93 bdbc
00000100: 0452 a03c 6aa7 acbd 053b 383c 8550 4abd
00000110: b71e 8c3a 2a9c 9fbd d729 9c3d 0b41 e23c
00000120: e725 053d 8394 ae3d ca5f 08bc ad0d a8bd
00000130: 2942 da3c faa2 1abd 0680 9dbc 9459 46bc
00000140: 1ce8 b23d 4b74 1d3d e8f0 5ebd c245 8abd

fc3.bias f4 [10]
-0.10120478 -0.08956935 0.039260622 -0.057478752 0.053998824 -0.08708673 0.08309247 0.0123935165
0.0445328 0.08443991
00000000: 7444 cfbd 2370 b7bd bfcf 203d d76e 6bbd
00000010: df2d 5d3d 875a b2bd 632c aa3d 2d0e 4b3c
00000020: 0668 363d d5ee ac3d
