onnx_tutorial/my_image_classifier.onnx (onnx, 249749 bytes, 7 tensors)

conv1.weight f4 [6, 1, 5, 5]
000000 d5 16 28 be 10 37 de bd d2 a5 1e be 2d 28 c1 bd
       -0.1641496 -0.10850346 -0.15492943 -0.09431491
000010 8a c6 b9 bd 15 26 31 3e 25 e1 0e 3e 20 c7 9b 3d
       -0.090710714 0.17299683 0.13953073 0.076063395
000020 87 78 d4 3d f8 84 21 3e 07 2b 98 bd 73 56 17 bd
       0.10374551 0.1577338 -0.07430082 -0.03694768
000030 37 e3 82 3d cd c0 8a bd d7 7a d1 bd 40 d3 03 bd
       0.06390994 -0.06775055 -0.10228508 -0.032183886
000040 e3 6e 4b 3e f3 f9 38 3e 80 0e 81 3c 1a 5d f1 bc
       0.19866519 0.18064098 0.015753984 -0.02946334
000050 4d b6 8c bc da 97 31 3e d0 2a 8d bd 3a 6d 75 3d
       -0.017176772 0.17343083 -0.068929315 0.05991862
000060 b8 6d 08 3e 23 f7 c4 bd 07 48 4b bd a0 75 20 3e
       0.13323104 -0.0961745 -0.049629238 0.1566987
000070 e7 93 28 be 10 8f 37 be 1d e1 84 3d 3b d6 19 be
       -0.1646267 -0.17925668 0.064882495 -0.15023129
000080 88 a6 0a 3e da 9a b2 bc 37 f7 d2 3d f0 79 0f be
       0.13540089 -0.021802355 0.10301059 -0.14011359
000090 80 db f3 bc 0a e6 93 bd 7a 10 ee 3d 7a be cb bd
       -0.029767752 -0.07221611 0.116242364 -0.0994844
0000a0 5d f2 a5 bd 6a d9 96 3d cb ca 20 be 97 76 ef bd
       -0.08102868 0.07365687 -0.1570236 -0.11692541
0000b0 b7 b1 3f be 0d 8f 07 3e a7 9b ab bc 60 70 48 bd
       -0.18720137 0.13238163 -0.020948244 -0.048935294
0000c0 27 8a 37 bd 67 25 ae bb 15 ce 10 3e 73 08 0c 3e
       -0.044809487 -0.0053145173 0.14141114 0.13675098
0000d0 3a 09 44 3e ea 79 87 bd 0f 4b 31 3e 8f b8 03 3e
       0.19144145 -0.0661505 0.17313789 0.12863372
0000e0 5a f0 b5 bc c7 0b 0f 3d e3 35 c8 bd 35 10 4c be
       -0.022209335 0.03492334 -0.09775903 -0.19928057
0000f0 e7 94 35 3d c7 33 31 bd 20 2a 08 3e e7 19 23 be
       0.044331457 -0.04326227 0.1329732 -0.1592785
000100 20 69 aa 3d dd e1 a1 3d 30 b0 9a bd 25 00 00 be
       0.08320832 0.07904408 -0.07553136 -0.12500055
000110 43 bc f5 bd 63 50 cf bd 7d ad d7 3d ad 85 c1 bd
       -0.11998799 -0.101227544 0.10531137 -0.09449325
000120 33 85 8c bc 42 28 15 be a3 1a 03 be 2d 76 43 3e
       -0.017153358 -0.14566138 -0.1280313 0.19088049
000130 e7 36 b7 3d 40 ba 8b 3d 8f 2d 12 be 13 ab bc bd
       0.08946019 0.06822634 -0.14275192 -0.09212317
000140 cd 3a c9 bd c5 6d 43 3e 80 6e 4b 3d 93 61 a5 bd
       -0.098256685 0.19084843 0.049665928 -0.080752514
000150 03 3c bc bd b7 5f 29 be 6f 0d 49 be 40 e7 f7 3c
       -0.09191134 -0.16540419 -0.19634031 0.030261636
000160 27 e4 35 be ca c9 34 3e 80 8a ea 3c 7a 96 28 be
       -0.17762814 0.17655101 0.028630495 -0.16463652
000170 a5 70 34 3e e2 9a 47 3e 5a 3f 0b 3e e3 6f 97 bd
       0.17621095 0.19492677 0.13598385 -0.073943876
000180 5a 99 d9 bd 98 7c 1d be 27 7a 13 3d 8d dd 48 3e
       -0.106249526 -0.1537956 0.036005165 0.19615765
000190 60 a8 43 bd e5 17 43 3e 47 35 30 bd f3 88 e5 bc
       -0.047767997 0.19052084 -0.04301956 -0.028019404
0001a0 97 ad 99 bd 42 ca 2a 3e 57 70 87 3d 00 ac 1f bd
       -0.07503813 0.16678718 0.06613224 -0.03898239
0001b0 17 06 89 bd 9a 56 5e 3d 6a 80 ce 3d 73 f8 5d bd
       -0.06690615 0.05428181 0.10083087 -0.054192018
0001c0 93 c9 74 3d 0a 27 12 3e 87 d9 98 bd cd ba 29 bc
       0.05976255 0.14272705 -0.07463365 -0.010359478
0001d0 8d b6 46 3d fd 9b ed bd 4d 39 24 be 33 ac a2 3c
       0.048513938 -0.11602018 -0.16037484 0.019857502
0001e0 da 60 eb bd f3 63 83 bd 4d c4 a9 3d 40 57 bd bc
       -0.11493082 -0.06415548 0.082893945 -0.023112893
0001f0 07 4c 5c 3d da 84 6e 3d cd 09 d6 3d 50 62 44 be
       0.053783443 0.058232166 0.10451088 -0.19178128
000200 a7 bf bf bd 8d 75 83 3d ca 43 37 3e 50 de ff bd
       -0.09362727 0.064189054 0.17896953 -0.124935746
000210 9a ad df ba 73 c8 1c 3e 20 db 0c 3e b3 94 58 bd
       -0.0017065287 0.1531084 0.13755465 -0.052876186
000220 7d 61 a3 3d 02 d4 16 3e 27 5c 40 3d 3d 1f c8 3d
       0.07977579 0.14729312 0.046962883 0.09771583
000230 c7 a1 24 bd cd b4 67 bd 3f 51 47 3e 93 aa 66 3d
       -0.040193345 -0.05656891 0.19464587 0.056315016
000240 18 70 1a 3e 4d f5 21 3d 33 56 f4 3b 3b a9 15 3e
       0.15081823 0.039540578 0.007456565 0.14615338
000250 a3 c3 3d be d7 2f e3 3d
       -0.1853166 0.11093109

conv1.bias f4 [6]
000000 60 6c 07 3d 0a c5 3f be 72 9f 22 be 45 0e 32 be
       0.03306234 -0.18727508 -0.15881136 -0.17388256
000010 90 ec 3d 3e 2a e5 f8 bd
       0.18547273 -0.121530846

conv2.weight f4 [16, 6, 5, 5]
000000 f7 1d 24 bd 62 fd 7a 3d 84 e4 1e bd 77 7b 81 bd
       -0.04006764 0.0612768 -0.03879215 -0.06322377
000010 df 96 a0 bc 04 dc a4 3d 59 c2 86 3c 17 0a 26 3d
       -0.019603191 0.08049777 0.016450094 0.040536966
000020 3d 41 97 bd 06 97 70 3d 97 d9 91 bd 86 96 6c 3d
       -0.0738549 0.058737777 -0.0712158 0.057760738
000030 29 44 92 bd de b5 17 3d c6 1d c3 3c 0a 8d 3a 3d
       -0.07141907 0.037038676 0.023817908 0.04554466
000040 27 2f 83 3d 43 21 e2 3c 91 65 9b bd b6 e4 05 bd
       0.06405478 0.027603751 -0.07587732 -0.03268882
000050 a6 d5 e2 3c 11 ac 87 3d 49 78 a1 bd 44 fd cb bc
       0.027689766 0.06624616 -0.07884271 -0.02490104
000060 f5 99 97 bd de fe a8 bc c1 1a 88 3d 96 c7 ec bc
       -0.07402412 -0.020629343 0.06645728 -0.028903764
000070 8d 23 67 bc 12 91 1b bd 0a 83 70 3d 8b 30 70 3d
       -0.014107597 -0.037980147 0.05871872 0.058640044
000080 35 58 7e 3d bb 3a 64 bd c6 03 a1 bd 33 17 20 3d
       0.06209584 -0.055720072 -0.07862048 0.039084624
000090 cc d2 11 bd e0 e0 3b 3b 6e cf 88 3d df 2b 0b bd
       -0.035601422 0.0028667971 0.06680189 -0.033977386
0000a0 fe 16 a3 bd 32 e1 aa bc 6d dc c8 bb 77 0c 94 3b
       -0.0796337 -0.020859335 -0.0061297924 0.0045180875
0000b0 83 50 aa 3b 12 23 75 bd d6 2a a9 bc 87 ae 36 3d
       0.005197586 -0.0598479 -0.020650309 0.044600036
0000c0 b3 ea 1e 3d 56 5d 98 bd 22 a4 c2 bc be ec 9b bc
       0.038798045 -0.074396774 -0.023759905 -0.019033786
0000d0 e7 9c e2 bb 0f ec a2 3d ed 31 8d 3d 06 e8 9e bc
       -0.006915677 0.07955181 0.06894288 -0.019397747
0000e0 ee 85 45 3d 79 4f 58 3d f6 6f 9b 3b 9b 48 c7 3c
       0.04822343 0.052810166 0.0047435714 0.024326613
0000f0 78 ad a5 bd 13 07 20 bd 72 65 8b bd db 01 d4 3c
       -0.08089727 -0.039069247 -0.068064585 0.025879791
000100 d9 3d ab 3c 60 85 09 3d ed cc 8e 3d 34 6f 53 3d
       0.020903515 0.033574462 0.0697268 0.051619723
000110 9e 4e be 3c a8 57 4e bd e5 32 15 bc 38 6c 21 3d
       0.023230847 -0.050376564 -0.0091063725 0.039409846
000120 f4 e2 1a bc 74 ae 31 bd dd 02 27 3d b2 19 3d bd
       -0.009453524 -0.043379262 0.040774215 -0.046167083
000130 d6 97 1e bd b0 e4 6a 3c 20 46 d3 bb c9 e0 86 3d
       -0.03871902 0.01433675 -0.0064475685 0.06585843
000140 61 2b 3b 3d 12 88 6b bc 13 4b 58 bd 21 ff 82 3c
       0.045695666 -0.014375703 -0.05280597 0.015990796
000150 16 ed 76 3c e2 08 8b bb ec 0e 83 bd bf 80 4e bd
       0.015071174 -0.0042430023 -0.063993305 -0.05041575
000160 b3 15 80 3d 35 15 16 bd d4 fb a3 3c 1f 32 9d bd
       0.06254139 -0.03664132 0.020017542 -0.076755755
000170 89 ae 7c 3c 72 6a ca 3c 13 e7 c9 3c bd 73 50 3d
       0.015422472 0.02470896 0.024646318 0.050891627
000180 83 3e 1a bc 2a 9a ea bc 7e e4 33 3d 3a 03 89 3c
       -0.009414318 -0.028637964 0.04391908 0.016725171
000190 91 60 7a bd 19 7b 5e bd 4e 15 92 bd ce 45 26 3c
       -0.06112725 -0.054316614 -0.0713297 0.010148479
0001a0 30 a4 61 bd 44 e4 b3 3c a6 bf 91 3c 1b 78 fb 3b
       -0.055088222 0.021959431 0.01779158 0.00767423
0001b0 30 f2 64 3d 5a d4 eb 3c bc c4 8c 3d 35 c7 24 bd
       0.05589503 0.02878778 0.068734616 -0.04022904
0001c0 18 5c 71 3d ff 15 8f bd 91 bb 2c bd 51 2c 70 3c
       0.058925718 -0.06986617 -0.042171065 0.014659003
0001d0 bc 20 f9 bc 44 f1 36 bc 3c 07 9f bd ac 1e 79 3d
       -0.030411117 -0.011165921 -0.07765052 0.060820267
0001e0 0d 78 a1 bd 56 5f 66 bd 91 8b 77 bd 0a 62 d4 3c
       -0.07884226 -0.056243263 -0.060435835 0.025925655
0001f0 a1 d9 5e 3d 41 2d 89 bc 62 fb 8d bd 1c e8 cc bc
       0.054406766 -0.016745212 -0.06932713 -0.025013022
000200 9f c6 9a 3b 74 85 b8 bc 4c 6a a3 bd 54 0b c7 bc
       0.0047233845 -0.022524573 -0.07979259 -0.024297394
000210 be 17 32 bc ad ab 7f bc ce bf 0d bd 73 86 49 bd
       -0.010869918 -0.015604896 -0.034606747 -0.049200486
000220 d5 bb d7 bc 71 7c 11 3d bb db 24 3c e2 8c 92 3d
       -0.026334682 0.035519067 0.010062153 0.071557775
000230 3a 06 12 bd f9 2c 98 3c 85 0a 5c 3d f9 57 a0 3d
       -0.03565047 0.018576132 0.05372097 0.078292795
000240 7d bb 1b bc d0 6c 14 bd ea 5f 38 bc d8 cf 1d 3c
       -0.00950515 -0.036236584 -0.011253336 0.009632073
000250 46 84 13 bd e8 eb fd bc df 34 88 bd ef 6f 5a bd
       -0.036014818 -0.030996278 -0.06650709 -0.053329404
000260 a1 89 0c 3d e9 e8 bc 3c 5b fb 7f bd 5a 99 9d bd
       0.03431094 0.023060279 -0.06249557 -0.07695265
000270 89 a2 c8 bb 3c c6 1f bb d6 8a 8e 3d 6f f4 53 3d
       -0.0061228913 -0.0024379632 0.069600746 0.051746782
000280 c5 0c 8a 3c aa 63 6b bd ec 30 f9 3c dd 1d a2 3d
       0.016851792 -0.057468094 0.030418836 0.07915852
000290 96 14 94 bd 46 5e 94 3d 36 9e e4 bc 0d 11 4e bd
       -0.07230489 0.07244544 -0.027907472 -0.05030923
0002a0 c6 5b 9c bd 33 6f 4d 3b 18 0e 8d bc d0 b3 8d 3d
       -0.07634692 0.0031346797 -0.017218634 0.06919062
0002b0 14 84 be bc ef a9 09 3d f5 08 11 3d 96 da 1a 3d
       -0.02325634 0.033609327 0.035408933 0.037806116
0002c0 b3 57 f2 3b a7 2b 51 bd 51 cc 94 bd 4c d2 9e bd
       0.0073957085 -0.05106702 -0.07265533 -0.07754955
0002d0 a7 01 86 3d f0 cf 91 3a 72 37 45 bd f9 57 2f bd
       0.06543284 0.0011124592 -0.04814858 -0.042808507
0002e0 75 17 74 3d 6b be dd 3c ae 6d e3 bc 4b 4f be bc
       0.059592683 0.027068337 -0.02776226 -0.02323117
0002f0 96 c3 9c 3c 6b d7 aa bc da 3b 8b 3d 42 bb 8f 3a
       0.019136231 -0.020854672 0.06798525 0.0010965841
000300 89 c1 5b bd dd 70 9d 3c 72 9a 96 bd cf 95 48 3d
       -0.053651366 0.019218856 -0.07353677 0.048970994
000310 e1 a4 11 3d d0 a5 25 3c 21 85 d9 3c f3 7f 68 bd
       0.03555763 0.010110334 0.026552739 -0.056762647
000320 62 16 3f 3d 9d f1 06 3d fc d1 f0 3c a0 26 aa bb
       0.046652205 0.032945264 0.029397003 -0.0051925927
000330 24 ce 71 3d a2 25 67 3c 3b 1e 47 3d bd 32 13 3d
       0.05903448 0.014108093 0.048612814 0.03593706
000340 28 38 70 bc 29 01 91 3c d9 62 1b bd c3 46 79 3d
       -0.014661826 0.017700749 -0.037936065 0.0608585
000350 4d 7d b1 3c a7 ed 09 3d e5 34 e0 bc 66 95 28 bd
       0.021666193 0.03367391 -0.027368972 -0.041158102
000360 e3 69 58 3d a8 c7 95 bd d5 c8 c5 bc 89 92 a1 bc
       0.052835356 -0.07313472 -0.024143616 -0.019723194
000370 77 5f e4 3c f8 0a 53 3d 84 a2 9c bd 0c ab 63 bd
       0.027877552 0.051524132 -0.07648185 -0.055583045
000380 ed 79 44 3d 40 63 c1 bc 81 23 a2 3b a8 4a a2 3c
       0.04796784 -0.023606896 0.00494808 0.01981099
000390 29 84 fc 3b 72 77 84 3d 83 90 e2 bc 46 af 18 bd
       0.0077061844 0.06468095 -0.0276568 -0.03727653
0003a0 11 40 24 bc 50 7c 09 3c 28 85 a2 3d 01 0f 50 3d
       -0.01002504 0.008391455 0.07935554 0.05079556
0003b0 89 16 cc 3c 44 f1 99 bd 7f 73 2d bc 86 99 67 3d
       0.02491309 -0.07516721 -0.010586618 0.056542896
0003c0 81 44 01 3d c3 fc 19 3d 3f 95 50 3b 9c 7f 5d 3d
       0.03155947 0.037594568 0.003182724 0.054076776
0003d0 ee fd 16 3d c0 9a 20 bd 38 b7 ca 3c 3e b0 5a bd
       0.03686326 -0.03921008 0.024745569 -0.053390734
0003e0 c4 6b 09 bd 42 8f a6 3d 4c 90 a6 bd b0 77 62 bd
       -0.03355004 0.08132793 -0.08132991 -0.055289924
0003f0 b3 2d 57 3d 0e e7 9d bc fb 14 86 bd e1 c2 6c 3d
       0.052533817 -0.019275215 -0.065469705 0.05780304

conv2.bias f4 [16]
000000 a0 7a 9e bd 9e 21 95 3d 8c c4 64 3d 28 a6 23 3c
       -0.077382326 0.072818026 0.055851504 0.009988345
000010 ec dd 61 bd eb dc 1d bd 5e 63 0e bd 2f 5a b2 3c
       -0.05514328 -0.038540762 -0.034762733 0.021771519
000020 bf 9b 09 bc d7 a2 d0 3c 57 ae 9e bd e9 2d 18 3c
       -0.008398949 0.025468273 -0.077480964 0.00928829
000030 6d 27 0d 3d 94 5c 1a 3d 1b d4 87 bd 70 e5 37 bd
       0.034461427 0.037685946 -0.06632253 -0.044896543

fc1.bias f4 [120]
000000 1f f2 0f 3d 27 39 a0 3b 33 e3 3d b9 3b 05 2c 3d
       0.035143014 0.0048896256 -0.00018109083 0.041997176
000010 a0 d0 96 bc 4b d1 26 3d 23 ca 84 bc 73 83 53 bc
       -0.018410027 0.04072694 -0.016209668 -0.012909758
000020 f3 90 ce bb 9f aa 03 bd eb 7e 08 3d a0 ee 4e bc
       -0.0063039004 -0.03214514 0.033324163 -0.012630135
000030 83 7f 95 3c 33 bb 90 39 53 83 b3 bc cd 01 2f bd
       0.018249279 0.00027605295 -0.021913206 -0.042726327
000040 9a 9b 26 3c d8 72 17 3d 5a 72 e0 3c ed ff 60 bc
       0.010168934 0.036974758 0.027398277 -0.013732892
000050 47 f0 c0 bc 73 02 29 3d 67 f5 ec 3a b7 4f 41 3d
       -0.023552073 0.0412621 0.0018078507 0.047195163
000060 70 00 0d 3d 70 df 16 3d 0d 74 8f bc d7 41 9c bc
       0.034424245 0.03683418 -0.017511392 -0.019074364
000070 6a 58 a2 bc 53 f3 b6 3c 57 3c 09 bd 80 a3 95 3b
       -0.01981755 0.022332823 -0.03350481 0.00456661
000080 1f 42 32 bd ab 7e 36 3d 37 10 22 bd dd 06 98 bc
       -0.04352009 0.044554394 -0.039566245 -0.01855796
000090 ca ba 9c bc a7 1d 47 bd 18 bb 4b 3d e0 3b 8a bc
       -0.019132037 -0.048612263 0.049738973 -0.016874254
0000a0 90 9e 34 bd cd b0 a2 39 0d b2 ab 3c aa 36 08 3d
       -0.04409653 0.00031030775 0.020958925 0.033255257
0000b0 33 83 cf 39 08 91 43 3d 0b 27 36 bd 8d f2 c2 bc
       0.00039579868 0.047745734 -0.044470828 -0.023797298
0000c0 17 d2 c6 3c 3f d1 1d bd 17 9a f5 3c e0 1d bd bc
       0.0242701 -0.03852963 0.029980702 -0.023085535
0000d0 3d d0 42 3d a8 c4 0b bd 53 05 44 3d a7 aa f2 3b
       0.047561873 -0.034123093 0.04785664 0.0074055973
0000e0 33 b0 f2 3b a2 aa 19 3d 27 df 0c 3d 67 a0 0c 3a
       0.0074062585 0.037516244 0.034392502 0.0005364478
0000f0 e3 a8 ad 3c ed af 3d 3c 9a 41 7a 39 5a 41 32 3c
       0.021198696 0.0115775885 0.00023866296 0.010879839
000100 6a 79 aa bc 4d 9b 96 bc 33 51 64 3c 00 7f 99 bc
       -0.020809848 -0.0183846 0.013935375 -0.018737316
000110 4f 9c 43 3d c7 cc 10 bc 6b ac 41 bd 57 ba 9d bc
       0.04775649 -0.008837885 -0.04728357 -0.019253893
000120 50 14 48 3d 87 09 f2 3c da 10 16 bd 4b 7f 05 bd
       0.048847497 0.029545559 -0.036637165 -0.0325921
000130 4d 75 3c 3d 8d dc 0f bc b3 89 e9 bc ff b0 18 bd
       0.046010304 -0.008780611 -0.028508043 -0.03727817
000140 0d f5 d4 bc f7 72 8e 3c 0f 8c 49 3d 0d 4a 60 3c
       -0.025995756 0.017388804 0.049205836 0.01368953
000150 1a 57 70 3c c7 9c 0d bc d7 42 d9 3c 53 e9 ed bc
       0.014669204 -0.008643336 0.02652113 -0.029041922
000160 e2 0a 24 3d 13 a3 00 3c 1a 16 af 3b 20 48 0f 3d
       0.04004944 0.00785138 0.005343211 0.034980893
000170 e0 c8 80 3c cb 86 1d bd e0 91 64 3c 67 a6 09 3a
       0.015720785 -0.038458627 0.013950795 0.0005250931
000180 3f 5d 10 3d 73 74 fb bc b7 dd 2e 3d 32 0c 22 3d
       0.035245176 -0.030695176 0.042691913 0.03956241
000190 53 cd bc bc b3 6f de 3b b3 42 26 3c a2 86 34 3d
       -0.023047125 0.006788218 0.010147738 0.04407371
0001a0 0f ae 48 3d bd 31 d3 bc 8d 82 4a bc 5a 2a 2c bd
       0.04899412 -0.025780553 -0.012360227 -0.042032577
0001b0 8d 4c a7 bc b3 9a 1d bd da ed dc bb 37 a3 d1 bc
       -0.020422244 -0.03847761 -0.0067422213 -0.025590522
0001c0 e3 a0 0f 3d a0 1d c5 3c 40 e9 31 3d 20 2b f6 bc
       0.035065543 0.024061978 0.043435335 -0.03004986
0001d0 8d c2 a4 3c 9a 59 23 38 43 18 4c 3d 02 a7 24 3d
       0.0201123 3.8945676e-05 0.049827825 0.040198334

fc2.bias f4 [84]
000000 f4 d3 f5 bb 79 02 9d bd 57 1b 45 3d d6 68 8d 3d
       -0.0075020734 -0.07666487 0.048121776 0.069047615
000010 2e b3 6e 3d 59 ab 66 3d d3 06 3e bd 0d 29 4b bd
       0.058276348 0.056315754 -0.046393227 -0.049599696
000020 e1 34 65 3c 88 24 96 3d 74 ee 53 3d 6f 03 02 bd
       0.013989658 0.073311865 0.05174108 -0.031741556
000030 a7 2c f4 bc f7 fd ab bd a5 64 e2 3c c3 63 05 bb
       -0.029806448 -0.08398049 0.027635882 -0.0020353652
000040 24 72 b0 3d 97 d5 ed bc 85 3e e9 bb 84 22 90 bb
       0.086155206 -0.029032512 -0.0071180486 -0.004398646
000050 44 a1 2b bd 22 a8 4a bd de ae 72 bd 22 76 1d bd
       -0.04190184 -0.04947675 -0.059248798 -0.03844274
000060 6c d4 17 bd ac 41 b6 bd 50 03 8b 3c 4b 8c 4b 3d
       -0.037067816 -0.08899245 0.016969353 0.04969434
000070 05 b3 59 3d 47 45 e6 bc bc 73 a4 3c 88 37 e7 3c
       0.053149242 -0.028109206 0.020074718 0.028224722
000080 61 4d 8a bc 0b c1 9d 3c 60 a3 88 bd 6c d6 b9 bd
       -0.0168826 0.01925709 -0.06671786 -0.09074101
000090 5b ed 37 3d ce a5 5f 3c b5 35 72 bd e6 8a 75 3d
       0.044904094 0.013650371 -0.05913325 0.059946917
0000a0 4b fa 32 3d 47 fd 9f 3c ba 0a b8 3c 44 92 d4 bc
       0.04369573 0.019529952 0.022466052 -0.025948651
0000b0 87 b5 31 3d 05 7e 8c bb 04 a9 b0 3c b2 bc 4e 3c
       0.04338601 -0.0042874836 0.021564968 0.012618231
0000c0 6a b0 31 3d 4e 2f ad bd 07 72 0d bd ad d0 87 bc
       0.043381132 -0.08456288 -0.034532573 -0.016578997
0000d0 ae 50 90 3d a2 06 4e 3d 87 60 7b 3d eb 69 b1 3d
       0.070466384 0.050299294 0.061371353 0.086627804
0000e0 8c cd bc 3c 51 cc 3c bd 35 b3 09 3d 41 79 15 bd
       0.023047231 -0.04609329 0.03361817 -0.03649259
0000f0 49 9c f0 3c cd fc 58 bd 81 2b 99 bc b4 60 2f 3d
       0.029371398 -0.052975465 -0.018697502 0.042816833
000100 68 46 11 bd a6 1c 64 bd a0 90 ea bc 54 5a 4c bd
       -0.035467535 -0.055691384 -0.028633416 -0.04989083
000110 c7 c2 92 bc 5e b1 24 3d 4d db 4f 3d 2f 72 88 3d
       -0.017915143 0.040208213 0.05074625 0.06662404
000120 13 3a 07 bd 30 f4 52 bd d0 5f a1 bd 28 86 fa 3c
       -0.03301437 -0.051502407 -0.07879603 0.030581549
000130 d7 aa 93 3d 93 c8 c7 bc f4 e9 9a bd e1 bd 80 bc
       0.072103195 -0.024387633 -0.07564154 -0.015715541
000140 d0 f4 92 bd 38 0d 8b 3b f2 22 3c 3d 72 87 1a 3b
       -0.071756005 0.004243519 0.045931764 0.0023579267

fc3.bias f4 [10]
000000 f8 3d 98 3d 53 f4 bd 3d eb 2a ba bd 29 12 30 3d
       0.074336946 0.09275117 -0.09090217 0.04298607
000010 4c cb b5 bd 6e 10 96 bd 99 01 de bd fa 56 43 3d
       -0.088766664 -0.073273525 -0.108401485 0.04769037
000020 64 b9 c1 3d 03 12 9a 3d
       0.094591886 0.07522967
